model/tinynet_solution.safetensors (safetensors, 631536 bytes, 6 tensors)

c1.weight f4 [64, 256, 3, 3]
000000 8c 03 13 3b aa 40 69 3c 43 3b 1a bd f1 45 68 3d
       0.0022432534 0.0142366085 -0.037654173 0.056707326
000010 6d a0 88 3c e3 1c 06 3a f9 8c 86 3d b2 52 a0 3c
       0.01667806 0.0005115999 0.06569857 0.019570682
000020 6a eb 45 3d 30 b4 d7 3c 02 9f b3 3c 00 7d 21 3d
       0.04832021 0.026331037 0.021926407 0.03942585
000030 97 4c 99 bc 05 e9 97 3b fe a2 35 3c 0e 2f a6 bb
       -0.018713279 0.0046359324 0.011086224 -0.0050715273
000040 db 8e 42 bc 90 33 6d bb 86 c1 dc bc 9c 73 a0 3c
       -0.01187488 -0.0036194064 -0.026947748 0.019586377
000050 8d 71 ea 3a bd a6 07 39 f4 0e 5d 3c 28 e6 27 3c
       0.0017886624 0.00012936718 0.013492335 0.010247745
000060 2d 1b 91 bc 3f 24 6f bc 9e 9e dc bc 6c 29 4a bd
       -0.017713154 -0.014596044 -0.026931103 -0.04935591
000070 41 9d 0a bc 55 7e dc ba 08 2d e5 bc 21 0f 1d bd
       -0.008460344 -0.0016822318 -0.027975574 -0.038344506
000080 3c 46 9b 3c ea 7b c4 bb 4e 2d ab bc ab 80 6b 3b
       0.018954389 -0.005996217 -0.020895626 0.0035934846
000090 a6 0a 1e 3d 4d d3 60 3d 3a de 89 3d 93 97 5e 3c
       0.038584374 0.054889012 0.067318395 0.013585943
0000a0 d1 70 52 3d 56 d1 96 3c 29 8d 2a 3c 94 6f a4 3c
       0.05137712 0.018410366 0.010409632 0.020072736
0000b0 f8 c0 2c 3b e2 ab f5 3c 91 be 02 3b 58 3b 9e bc
       0.0026360136 0.029989187 0.0019950012 -0.019315407
0000c0 65 2e e3 3c ff 26 b0 3c 7d a2 2e 3c 5c 14 e9 bc
       0.027732084 0.02150297 0.010658857 -0.02845209
0000d0 c5 ad 7c 3c 20 e5 10 bd 3d 29 cc 3b 3c b1 88 bc
       0.015422289 -0.03537476 0.006230502 -0.016686074
0000e0 59 d0 41 3d 24 ce b4 bc 09 85 4a b9 dd 71 02 3d
       0.047317836 -0.022070952 -0.0001931378 0.03184687
0000f0 b7 6f ae bb f9 8b 09 bc ef 9e c9 bc f3 04 12 bd
       -0.005323376 -0.0083951885 -0.024611918 -0.03564925
000100 c6 e6 1b bd ef 70 b9 bc c7 25 6e bc 4b 99 dc bc
       -0.03806188 -0.022636859 -0.014535374 -0.026928565
000110 98 c6 ff bc 0f bb 5f bc 54 13 79 3b 6a 3b 14 bb
       -0.031222627 -0.013655438 0.0038005905 -0.0022618421
000120 a0 6a 52 bd ba fc 6a 3c 23 cd 67 3c 5a 9f 9a 3c
       -0.051371217 0.014342481 0.0141480295 0.018874813
000130 e1 d6 a2 ba 1c 32 fe bc f8 0d 13 3a 52 ff 20 3c
       -0.0012423658 -0.031029753 0.00056096865 0.009826498
000140 3f 3c 52 bd 66 bc 80 bc bd 3d 3a bc d6 ee 1e bc
       -0.051326986 -0.015714835 -0.011367259 -0.009700498
000150 d3 63 53 bd b4 c0 ae bc 2b 94 c8 3c 97 32 4c bd
       -0.05160887 -0.021332122 0.024484714 -0.049852934
000160 f5 04 ba bb 14 c9 48 bc 14 10 02 bc 35 52 9c bc
       -0.0056768605 -0.012254972 -0.007938404 -0.019082168
000170 74 e7 39 bd 31 ed 5f 3c b2 27 29 bc 88 e3 20 bd
       -0.045386747 0.013667391 -0.0103244055 -0.03927949
000180 48 b0 de 3c d6 d9 36 bd 36 4e be 3c 10 90 00 bb
       0.027183667 -0.04464134 0.023230653 -0.0019617118
000190 17 fa 7d bd 14 67 6d bd ac 5c 4c bd c9 9b 84 bd
       -0.062006082 -0.05795963 -0.049893066 -0.06475026
0001a0 ff 8a 9f bd f0 80 ce bc 3a 64 66 bd 56 ad 8b bd
       -0.07790183 -0.025207967 -0.056247927 -0.068201706
0001b0 ea 9b 16 3d 26 7e 12 3d 6a df 2c 3d 1b c6 c4 3b
       0.036769785 0.035764836 0.04220525 0.0060050613
0001c0 42 2f f4 3b b8 91 e8 bc 60 33 b3 3c 57 50 42 bc
       0.0074519226 -0.028389797 0.021875083 -0.011859975
0001d0 18 86 71 bc 7b 33 fe 3c 7a fc 21 bb 9f 57 44 bc
       -0.014741443 0.031030407 -0.0024717138 -0.011983781
0001e0 df a2 a7 3c 77 ba 04 bc 77 52 fa bc d2 3c e4 3b
       0.020463405 -0.008101097 -0.0305569 0.006965258
0001f0 4b 0f 0a b9 e3 7d 9b bc b5 b4 d1 3c b9 10 12 3c
       -0.00013166403 -0.018980926 0.025598863 0.00891512
000200 1f 14 4c 3c 7e f8 b7 bc e7 cc 67 bb 41 25 12 bb
       0.012455969 -0.022457357 -0.0035369934 -0.0022300037
000210 0b b2 a0 3c 87 98 9f 3a 18 cf 05 3c c0 e0 75 b9
       0.019616148 0.0012176194 0.008167051 -0.00023448747
000220 c4 d5 bb bc 37 93 c1 3a 3e 2a 01 3d 55 79 b8 3b
       -0.02292908 0.0014768605 0.031534426 0.0056296983
000230 14 6a cb bb eb e9 6d 3c d8 6d 0e bc 3b 8e a3 bb
       -0.006207714 0.014521102 -0.008693181 -0.0049913204
000240 b7 c3 fa 3c a6 eb 41 bc 5c cc 8f 3d 8b 07 80 3d
       0.030610902 -0.011835968 0.070214 0.06251439
000250 7c 08 95 3d b6 96 b1 bc 43 d8 49 3c 4a 47 00 3d
       0.07277009 -0.02167831 0.012319627 0.031317987
000260 2c 98 f1 3c 6f 3d 4f 3b 0e 5e 19 3c b2 6d 45 bb
       0.029491507 0.003162231 0.009360803 -0.0030125198
000270 86 eb 7a bb 57 52 09 3c 87 1a aa 3c cf 10 28 3c
       -0.0038287356 0.008381448 0.020764602 0.010257914
000280 cc 2e 1e 3b db 1a bc 3c 27 cd 49 3d 0d 47 31 3c
       0.002413678 0.022962024 0.049267914 0.0108201625
000290 b5 9c 82 3c 9b b5 7f bc 43 3d 19 3d 00 a7 37 bc
       0.015943864 -0.015607263 0.03741194 -0.0112092495
0002a0 88 4f ed bb 48 89 bf 3c c2 71 07 3c 1c 97 aa bc
       -0.007242147 0.02338089 0.008266868 -0.020824008
0002b0 01 dd cf 3b 00 c9 56 bc f2 0c c8 3a ae 4a b0 3c
       0.0063434844 -0.013109446 0.0015262647 0.021519985
0002c0 85 fa cb 3b 1a d2 6f 3c dc d3 89 bb 9e 5a 4f ba
       0.0062249326 0.014637494 -0.004206164 -0.00079099264
0002d0 88 06 73 bd 16 f9 94 bd 43 ea 80 bd 2c f6 55 bd
       -0.0593324 -0.07274072 -0.06294682 -0.05223672
0002e0 cb 1c 64 bd 11 4e 4d bd 40 b1 30 bd bb c7 eb bc
       -0.05569152 -0.050123278 -0.04313779 -0.028781762
0002f0 56 90 dc bc 24 b6 22 3d bc 16 f5 3c 3f 75 c9 3b
       -0.026924293 0.039724484 0.029918067 0.00614801
000300 52 5d 0b 3d fe 2d 46 3d 92 77 76 3c f1 9f de 3c
       0.034024544 0.048383705 0.015043156 0.027175875
000310 2a 5e 04 3c 40 aa 6f 3c 60 01 27 3d ba 35 86 3b
       0.008079091 0.014627993 0.040772796 0.00409576
000320 74 5c 8b 3b 56 89 9a 3c 14 5d d9 bc e1 8a dc bb
       0.0042529646 0.018864315 -0.02653364 -0.006730423
000330 23 67 6c 3d 92 8e fc 3c ae 9a 0a 3d 49 48 63 3c
       0.057715546 0.030829702 0.03383892 0.013872215
000340 7a 06 28 bc a1 fb 5c 3c 6a 2a 3b 3c 41 40 e3 3c
       -0.01025545 0.013487727 0.0114236865 0.0277406
000350 0f 54 9d 3c 3f de 2f 3d c7 52 80 3c a4 ea 44 3d
       0.019205121 0.04293656 0.015664471 0.048075333
000360 25 5a 42 bd 23 f9 9c bd 58 7b 8a bd 90 a2 76 bd
       -0.04744925 -0.076647066 -0.06761807 -0.060213625
000370 a0 9f 68 bd db c5 8c bc 21 cb fd bc e2 0f 39 bd
       -0.056792855 -0.017184189 -0.030980648 -0.045181163
000380 ad 27 1b bd 90 cd 6c 3d 6c d8 42 3d 40 b1 91 3d
       -0.037879635 0.057813227 0.047569677 0.07113886
000390 12 d4 dc 3b 34 f2 e6 3b 72 a2 90 3c e2 53 ae 3c
       0.006739148 0.007047916 0.017655585 0.021280233
0003a0 b8 65 55 3c 9b 2f 6b 3c 4b c0 8a 3c 1f 38 60 bc
       0.01302474 0.014354612 0.016937396 -0.013685255
0003b0 dd d4 16 bd bc fc 11 3b d1 97 3b bb ad 45 89 bc
       -0.036824096 0.0022275886 -0.0028624425 -0.016756857
0003c0 d1 3a 8c bc 10 41 0e 3c f7 11 ec 3c de da f5 bb
       -0.01711789 0.008682504 0.02881716 -0.0075028976
0003d0 7e 09 80 bd 9d 39 53 bd 49 ba 0d 3a 3a 9d b3 bc
       -0.062518105 -0.051568616 0.0005406482 -0.021925557
0003e0 9e 59 6d bd 4b ac d8 3a 45 11 a9 3b 40 34 ae bd
       -0.057946794 0.001653084 0.0051595294 -0.0850606
0003f0 ad 8e 0f bc eb c6 7b bc cd b6 d5 39 8a 23 cf 3b
       -0.008762044 -0.01536725 0.00040762723 0.0063213753

c1.bias f4 [64]
000000 50 72 80 3c 30 b6 b9 b9 84 c1 18 bc 5f 81 91 bc
       0.015679508 -0.0003542169 -0.0093234815 -0.017761884
000010 b6 02 db bb 6e 5c af bc 9a 4e da bb 0f 4b a2 bc
       -0.006683673 -0.021406379 -0.006662202 -0.019811181
000020 6d 3e 75 bc 51 35 17 39 62 7b 76 bc 25 ad 4f 3b
       -0.014968497 0.00014420344 -0.015044065 0.0031688896
000030 76 e2 58 bc fc c3 47 3c f2 4c 96 bc 9a a5 fb 3b
       -0.013237586 0.012192722 -0.018347237 0.0076796534
000040 fd 09 7d bc 67 0f 8e b9 46 14 19 bb 51 d6 55 bb
       -0.015444276 -0.00027095826 -0.0023358031 -0.0032628963
000050 81 7f ca bb 81 af 04 bc 9c cf dc 3b 84 b1 89 3c
       -0.0061797504 -0.008098484 0.006738616 0.016808279
000060 18 68 29 3c 43 50 db bc 5a 4a 5f bc 1f 92 13 bb
       0.010339759 -0.02677167 -0.013628567 -0.0022517515
000070 6a 05 72 3b 03 aa ad 3c 60 9e 71 bc f8 28 c6 bc
       0.0036929497 0.021199232 -0.014747232 -0.024189457
000080 37 a4 47 3c 81 fe 94 3c 39 5a 34 3c eb 03 65 3c
       0.012185148 0.018187763 0.011007839 0.013977985
000090 f6 df 7c bc 85 c5 4a 3c b1 a6 70 3c b2 cc 57 bb
       -0.015434256 0.012376194 0.01468818 -0.0032928404
0000a0 8e 66 6b bc ea 94 b0 bc 0e 4c b2 3b 8e bc 8c bc
       -0.014367713 -0.021555383 0.0054411953 -0.017179754
0000b0 55 f1 b6 3c ed 92 9b bb 98 91 1e bc 13 e0 aa ba
       0.022331873 -0.0047477395 -0.009678267 -0.001303675
0000c0 6d a7 b9 ba c9 82 82 3c c7 e9 ff 3b 08 c3 2f 39
       -0.0014164277 0.015931504 0.007809851 0.00016761955
0000d0 c3 6f 3d 3b 34 51 40 bb c0 14 8f bc 25 5d 2c 3b
       0.0028905727 -0.0029345276 -0.017465949 0.0026300636
0000e0 26 61 8b bc c7 6f 50 bc 0c ef 56 bc 03 3b ab bc
       -0.017014097 -0.012721962 -0.013118517 -0.020902162
0000f0 6e 84 65 bc 14 7f c7 bb 8a b9 9c bc 33 4c fc 3b
       -0.0140086245 -0.006088147 -0.01913144 0.0076995133

c2.weight f4 [8, 64, 3, 3]
000000 d6 60 b7 bc 68 4c 19 3d 85 39 67 bd b2 00 fc bc
       -0.022385042 0.037426382 -0.05645134 -0.03076205
000010 fb ff 61 3d 4c 5e 10 bd 21 bd e1 3c 68 af 43 3d
       0.055175763 -0.03524618 0.027556004 0.047774702
000020 64 d3 4e 3c cb c6 c9 bc f5 b0 62 bd 2e d6 ef bc
       0.012623642 -0.024630925 -0.05534454 -0.029276934
000030 85 8b 8d 3c 78 c6 0b 3d 7e 6d 27 bc ca 44 55 3d
       0.017278442 0.03412482 -0.010218976 0.052067555
000040 e3 63 44 3c 62 cc 3d 3d ca 3f 11 3d 2a f3 81 3d
       0.0119867055 0.046337493 0.035461225 0.06345208
000050 73 e1 f2 bb 40 98 16 bd 6c 3e 60 3d 27 f1 9c 3c
       -0.0074121295 -0.03676629 0.05474703 0.01915796
000060 bf c0 a6 bd 90 f1 b3 3b 88 e8 b9 bc d9 2c 08 3d
       -0.08142232 0.005491443 -0.022693887 0.033245895
000070 65 4b 7b 3d 60 3a b4 bc a4 d0 17 3d ac 8b 15 3d
       0.0613512 -0.022000492 0.03706421 0.036510155
000080 57 36 65 3d a5 1d eb ba 47 a1 27 3b 07 34 18 3d
       0.055960026 -0.0017937912 0.0025578307 0.037158992
000090 74 69 44 bd 8a 67 c4 3b b9 97 ad bc 14 41 65 bd
       -0.04795213 0.005993788 -0.021190511 -0.055970266
0000a0 89 8b 8a bd b8 73 14 bc e3 5e 03 3d 10 f8 ec bb
       -0.067648955 -0.009060793 0.032072913 -0.00723172
0000b0 4f 93 01 bc fe 8f cc bb 88 b9 83 bc e3 c9 da bc
       -0.007908656 -0.006242751 -0.01607968 -0.026707595
0000c0 fc 84 5e 3a e9 a9 30 3c db 5f 25 3d 7f ef b6 3b
       0.0008488444 0.010782697 0.040374618 0.0055827494
0000d0 9e 30 8b bd 9e 9c 68 bd 42 57 67 bc de 85 dc 3c
       -0.06796382 -0.056789987 -0.014119925 0.026919302
0000e0 74 f1 36 3d ee 2d eb 3c 3c e7 eb 3c 4d 3c cc 3b
       0.04466386 0.028708424 0.028796785 0.0062327744
0000f0 f1 fd d3 3b 7b 2d 96 bc 23 a1 28 bd 9f 8a 57 bd
       0.006469481 -0.018332234 -0.041169297 -0.052622434
000100 9f dd 26 3d a6 58 db 3c a7 aa d8 3c 9f c9 34 3d
       0.040738698 0.02677567 0.02644856 0.044137593
000110 c1 7c b0 bc 23 61 82 bc 13 07 20 3d 54 c0 ae 3c
       -0.021543862 -0.015915459 0.039069247 0.021331944
000120 d0 97 cb 3b 8f 0a 1c 3d e2 fd 03 3b 39 2f f2 3c
       0.006213166 0.038096007 0.002014034 0.029563533
000130 06 0e 18 bc 37 fb 0b 3d 9e 59 34 bd fd 1e 6c 3c
       -0.009280687 0.034175124 -0.044030778 0.014411685
000140 e8 cb f5 3c 89 0d 9c bd 06 b5 df bc fa 13 5f bb
       0.030004457 -0.07619769 -0.027307998 -0.0034039007
000150 99 23 51 bd 7b 5f a4 bd 09 a7 48 bd 61 0d 8a 3c
       -0.05105934 -0.08026024 -0.048987422 0.016852083
000160 96 34 08 bd 27 26 b4 bc 4f 53 9b bc 49 64 9a 3c
       -0.033253275 -0.021990849 -0.018960623 0.018846648
000170 04 ed 25 3d 9e 49 af bc f3 a3 c8 bc ef 28 86 bc
       0.04050924 -0.021397408 -0.02449224 -0.01637694
000180 47 fd 9b bc 05 a5 80 3d 38 71 68 bd ba a7 10 bc
       -0.01904167 0.06281475 -0.0567486 -0.008829052
000190 a3 51 c2 3c 35 64 1d 3b f3 1d 86 3c df 33 4f 3b
       0.023720568 0.0024016027 0.016371703 0.003161661
0001a0 3e fa 9e 3b 9f e8 0e bd a4 3f 49 3d 42 d7 55 3d
       0.0048516085 -0.034889814 0.049132958 0.05220724
0001b0 e2 92 3e bc a8 2a 46 bd be 28 52 3c 72 90 01 3d
       -0.011631699 -0.048380524 0.0128270965 0.031631894
0001c0 8a 4a 71 3c 25 20 7c 3d 2a 2f 3f bd e6 91 51 bd
       0.014727244 0.061554093 -0.04667584 -0.05116453
0001d0 65 33 e7 3c 54 59 bf 3b 42 a7 27 bd de f9 82 bb
       0.028222749 0.005839506 -0.040930994 -0.0039970716
0001e0 00 f9 44 bd 07 65 de bc 1a 26 4e bc 8c 88 5e bc
       -0.048089027 -0.027147783 -0.012582326 -0.01358236
0001f0 c9 ec c1 3c db 14 ab bc 2e 61 32 3d b2 6c 68 3c
       0.023672478 -0.020883968 0.04354971 0.014186071
000200 65 d3 64 bc 52 c2 c9 3c c2 78 f4 bc 3a 1f e2 3b
       -0.013966416 0.024628792 -0.029842738 0.006900695
000210 5a 8d cd 3c d2 26 6d b9 44 8a 27 bd 81 82 31 bd
       0.025091816 -0.00022616543 -0.040903345 -0.04333735
000220 f9 8b 97 3c 39 57 54 3b 82 8f d9 bc 6a 56 53 3d
       0.018499361 0.0032400622 -0.026557688 0.051596083
000230 c9 71 4a 3a 8e 13 0e 3d ad bc 33 3d 84 f6 51 3d
       0.0007722644 0.034686618 0.043881107 0.051260486
000240 28 ff 8c 3b 41 53 f2 3c a1 ca 6b bd 0a a0 3e 3c
       0.004302878 0.029580714 -0.05756629 0.011634836
000250 a9 61 d1 3c b9 cc 2d bd b4 a9 b5 3d 08 4a 22 3d
       0.025559263 -0.042431567 0.08870259 0.039621383
000260 1f 45 26 bd 74 16 43 bd 8f 0c 22 bc fd 08 64 bd
       -0.040593263 -0.047628835 -0.0098906895 -0.055672634
000270 46 96 19 3d 8a 50 3b 3c 7a f6 ee bb 3b 56 db bb
       0.037496828 0.011432776 -0.007292566 -0.006693629
000280 69 06 98 3b 77 1c 1b 3d 2b 35 1a bd 36 4b e8 bc
       0.004639436 0.037868943 -0.03764836 -0.028356176
000290 c1 1b 37 bc 43 ab cf bc 72 ac 0f 3d 0c a6 b9 3c
       -0.011176051 -0.025350219 0.035076566 0.022662185
0002a0 07 49 6e bc 0d 8e c4 3c 7e 0f 79 3d 84 0e dd bc
       -0.014543778 0.023993516 0.06080579 -0.02698446
0002b0 dd 7e ff ba 31 84 d4 3c b4 25 31 3d ce 96 15 bd
       -0.0019492764 0.02594194 0.043248847 -0.03652077
0002c0 f7 dc 4f 3d 00 64 40 bc 0c 0b 8c bc 8c b1 0f 3d
       0.050747838 -0.011742592 -0.017095111 0.03508143
0002d0 93 c0 b8 3c 10 07 40 3d 36 73 ce 3c 01 b7 b9 bc
       0.022552764 0.046881735 0.025201421 -0.02267027
0002e0 4d 04 cd 3c 43 13 b2 bc 81 c7 00 bd ef 3d 29 3d
       0.025026465 -0.0217377 -0.03144026 0.04131883
0002f0 20 7b 49 3c 8e 91 14 3d 55 74 0d bd ad b0 bc bc
       0.012297422 0.036271624 -0.03453477 -0.023033464
000300 5a 37 f3 3c 39 2c 13 3d b9 1c d0 bb 2d a6 a5 3c
       0.02968948 0.035930846 -0.0063510803 0.02022084
000310 79 cb 1d bc 55 1a 3e bd 47 98 7a 3c 52 78 91 3d
       -0.009631031 -0.04641183 0.015295095 0.071030274
000320 8e 89 3e 3d 3a fc 43 3c d2 d8 07 bd c3 c7 9c bc
       0.0465179 0.011961991 -0.03316576 -0.019138223
000330 86 44 04 3d aa e0 15 3d 77 80 38 bc e1 8a 07 3d
       0.03229191 0.03659121 -0.011261097 0.03309143
000340 cf 29 d7 bc 97 43 c6 3c ce ca 35 bc 60 95 e8 3c
       -0.026265053 0.024202151 -0.011095716 0.02839154
000350 50 03 19 bd 8f 29 16 bb ca 3e 75 b8 ec fe 81 bd
       -0.037356675 -0.0022912954 -5.847103e-05 -0.063474506
000360 d2 50 0a 3d b0 48 8b bc 88 93 04 bd 1b e5 8b 3c
       0.033768483 -0.017002434 -0.03236726 0.01707702
000370 ca a2 cf 3c af d9 5f 3d 09 f7 5f 3c ea b5 02 bd
       0.025346179 0.05465096 0.013669738 -0.031911768
000380 dd 16 36 3d 88 bd 25 bb 8f 19 11 3d 35 55 af 3c
       0.044455398 -0.0025289971 0.035424765 0.021402935
000390 ab e6 3d bd 98 bf aa 3b ae 0f 2d bd fc 4c 31 bc
       -0.04636256 0.005210828 -0.04225128 -0.010821577
0003a0 95 7f 15 3c 8c 43 a1 3c 20 86 d1 bc 9c 18 4e 3c
       0.009124656 0.01968553 -0.025576651 0.0125791095
0003b0 c7 36 f4 bc 22 2b 7e 3c 40 ad 39 3c b5 52 9a bc
       -0.029811276 0.015513213 0.01133281 -0.018838266
0003c0 fb 3a 50 3c b8 b1 ae bc 0b 47 db bc 54 a5 87 bc
       0.012709375 -0.021324977 -0.026767274 -0.016558327
0003d0 76 be 2c 3d 81 59 5a 3d f4 3a 12 bd 3d 6d 1a bd
       0.042173825 0.053308014 -0.035700753 -0.037701834
0003e0 89 1d d6 3c 59 32 2e bd 2a ad bd bc 84 0d 7f bc
       0.02613713 -0.042528484 -0.02315386 -0.015567187
0003f0 fe 08 b8 3a 09 61 87 3c 91 9d 99 3c 67 de 1e bb
       0.0014040766 0.016525762 0.018751891 -0.002424145

c2.bias f4 [8]
000000 c1 27 47 bd d2 25 7f bc f6 de 29 bc 1e 3e 24 ba
       -0.048621897 -0.015572982 -0.010368099 -0.00062653597
000010 94 76 9e 3c 62 b7 0f bd f3 d0 93 3c 91 86 ea 3c
       0.019343652 -0.035086997 0.01804397 0.02862862

l.weight f4 [4, 1408]
000000 a6 c7 1a 3d fb ff b7 3c 99 69 01 bc 78 35 ec 3b
       0.037788056 0.022460928 -0.007898712 0.0072085224
000010 f0 d7 10 bd b0 6b 69 3c 13 aa 2f bd d8 e1 1f bd
       -0.035362184 0.014246866 -0.042886805 -0.03903374
000020 1e 97 00 bb d9 e3 2b bb 7a 37 9e 3c e5 3d bd 3b
       -0.0019621323 -0.0026228337 0.019313563 0.0057752007
000030 1d 31 b7 bb f3 22 b3 3c a5 50 89 bc fc 29 8a bb
       -0.0055905716 0.021867251 -0.016762087 -0.0042164307
000040 c3 c6 87 3c 07 a2 b0 3c 2b b0 45 bc 59 56 3c bc
       0.01657427 0.021561636 -0.0120659275 -0.011495196
000050 54 ad 9e 3c 1c 21 06 bd e5 73 03 bd 79 2c a5 38
       0.019369759 -0.03274642 -0.032092948 7.876097e-05
000060 dd 07 9b bc 0b c4 8d bc 79 85 d9 3b e3 32 b6 3c
       -0.018924648 -0.017305395 0.0066382256 0.022241062
000070 cc b3 72 bc 2e 38 9a 3c c5 11 c9 3b 41 51 5e bc
       -0.014813375 0.018825617 0.0061361515 -0.013569177
000080 3c 7b da 3c f4 13 1a 3c d1 f6 c8 bb 69 3d 8e bc
       0.02667009 0.009404171 -0.0061329384 -0.017363267
000090 00 bb 00 bd 5b 71 dc bc f6 18 b5 bc 1f da 0c bd
       -0.031428337 -0.02690952 -0.022106629 -0.034387704
0000a0 bb b8 31 bd 03 ab 74 bb 4b a4 fe bc 87 62 f2 3c
       -0.043389063 -0.0037333376 -0.0310842 0.029587997
0000b0 b1 8d a7 3c f4 a0 82 3c 15 a3 22 bc 2e a1 3c 3c
       0.020453306 0.015945889 -0.009926577 0.011513038
0000c0 22 6c 0b 3d 5d ab 16 3b 99 c4 51 3c 58 a0 75 bc
       0.03403867 0.0022990324 0.01280322 -0.014991842
0000d0 51 92 56 3c d8 92 11 bc 59 4a aa 3c 83 a5 ae bc
       0.013096408 -0.008885108 0.020787405 -0.021319157
0000e0 09 2d 4a bd 12 4a 81 bd 46 40 c4 bc 6e 02 19 3c
       -0.049359355 -0.06312956 -0.02395643 0.009338958
0000f0 16 f8 1c 3c e8 14 b4 3c 01 61 91 3c 76 45 3f bc
       0.009580633 0.021982625 0.01774645 -0.011674276
000100 a5 82 0c 3c ec 5a 06 3d 7e f7 ef 3c 2a 76 e9 bb
       0.00857607 0.032801554 0.029292818 -0.007124682
000110 7e eb 4e bb 84 29 d8 bb fa bc 1e 3d 17 29 b9 3b
       -0.003157347 -0.006596746 0.03875444 0.0056506502
000120 e9 b7 c1 bc af 63 b4 bc 9d 91 a4 bc 11 fd 00 bd
       -0.023647266 -0.02202019 -0.020088965 -0.031491343
000130 10 08 a6 bc 06 c1 70 bd 88 5b 71 bd c0 24 c3 bc
       -0.020267516 -0.05877783 -0.05892518 -0.023821235
000140 5a d3 95 3a d7 13 6e 3c cc 7f 91 3c 3e 73 8f 3a
       0.0011430786 0.014531097 0.017761134 0.0010944379
000150 80 77 e7 3c 09 91 df 3c a5 ec 67 3d 77 41 d6 3c
       0.028255224 0.027290838 0.056622166 0.026154263
000160 77 8a ce 3b 16 ba 80 bc c0 6c 84 bd 7d 30 d6 bc
       0.0063031274 -0.015713733 -0.06466055 -0.026146168
000170 0f 67 18 bc 24 53 44 bd 8f 8f 4b bc 5a f3 98 bb
       -0.009301915 -0.04793085 -0.012424364 -0.0046676816
000180 00 0f 0a 3c 49 07 d4 3c 19 32 cb bb a0 71 9e 3b
       0.008426428 0.02588238 -0.0062010405 0.0048353225
000190 7d 18 44 bd a7 e4 20 3d c6 84 c4 3c 79 81 ae 3b
       -0.047874916 0.03928056 0.023989093 0.005325493
0001a0 9f 9d b5 3b 39 49 60 3c a4 f2 91 3c 02 45 6d 3d
       0.0055424715 0.013689333 0.017815895 0.05792714
0001b0 7e 3d 6a bc bf 07 c9 bb 65 b4 11 bd c0 1e f8 3c
       -0.014296887 -0.0061349566 -0.03557243 0.0302881
0001c0 09 99 ca 39 db 6c 17 3d a4 1f ed 3a 76 39 e2 ba
       0.00038642462 0.036969047 0.0018091095 -0.0017259556
0001d0 cc 8a 37 bb cb 75 8d bc 7c 48 40 3c a6 99 ea bc
       -0.0028006313 -0.017268082 0.011736032 -0.028637718
0001e0 f9 3a d2 3c fc 54 0d bc 70 ba 5c bc 2f 29 20 3c
       0.025662886 -0.008626219 -0.013472185 0.009775444
0001f0 b7 04 07 3d 6b da 56 3a df 9d 02 ba 1e 52 80 3c
       0.03296348 0.0008195999 -0.0004982631 0.015664157
000200 67 40 78 3c 82 f7 8a 3d 56 70 40 3d b3 30 20 3d
       0.015152073 0.067854896 0.046982132 0.039108943
000210 8c 1a 0c 3d ad 21 4b 3b 2a 94 83 bc 24 4f 10 bd
       0.034205005 0.0030995414 -0.016061861 -0.035231724
000220 c1 fc b5 3c 6a f3 7f 3c 51 f3 05 3c e7 ba e4 3c
       0.022215249 0.015621999 0.008175687 0.027921153
000230 1f 44 a5 3c 55 0f ba bc be da bb bc 74 b4 d8 bc
       0.020174084 -0.022712389 -0.022931453 -0.026453234
000240 7f 55 11 bd 8a bc 79 bb a6 ae c2 3c b4 e4 4b 3d
       -0.035481926 -0.0038106763 0.02376492 0.049778655
000250 9b d7 c7 3b 7c 1f 00 3d df 76 b5 bc e6 d7 15 3d
       0.0060987 0.031280026 -0.022151409 0.03658285
000260 b8 f5 78 3d 88 6f 97 3c 87 71 da 3c 31 43 ec 3c
       0.06078121 0.0184858 0.026665462 0.028840633
000270 2f 2f 56 3d c0 84 e1 3a 97 b8 af bb be 58 f7 3c
       0.05229109 0.00172057 -0.005362581 0.030193683
000280 d5 ad 2b bd e4 31 65 bd 60 a3 f7 bc df 13 c9 3a
       -0.041913826 -0.055955783 -0.03022927 0.0015341005
000290 c2 37 8f bc fa 2d e4 bc bd c8 6d 3b f4 b8 fe 3c
       -0.017482642 -0.027853955 0.003628298 0.031094052
0002a0 0a d7 a0 3d cf ef 15 3d fd e4 05 3d f5 23 34 3c
       0.078535154 0.036605652 0.032689083 0.010994901
0002b0 a0 92 81 3d 16 38 53 3c 83 a1 18 bc 53 ad ea bb
       0.063267946 0.01289179 -0.009315851 -0.007161775
0002c0 5b 48 a3 bb bf 0c 74 bc 4e b9 78 bc 36 8b 82 3c
       -0.0049829907 -0.014895617 -0.015180899 0.015935522
0002d0 85 b9 87 bb 7e d8 21 3d 51 9a a7 3c 5b 73 07 3d
       -0.0041419887 0.039513104 0.020459326 0.033068996
0002e0 aa df 03 3d 35 87 8d 3c 4c ae fd 3b 8f 64 37 bd
       0.032195725 0.017276386 0.007741725 -0.044773635
0002f0 79 44 2d bd eb 00 20 bc 49 77 25 bc 66 3e 6f 3b
       -0.04230163 -0.009765844 -0.010099241 0.0036505698
000300 fe a6 b8 3b db df a1 bc 98 f1 26 bc 1c cd 5d bb
       0.0056351414 -0.019760063 -0.010189436 -0.0033844179
000310 69 40 41 3c c4 7c 9d 3c 76 5f dc 3c f2 97 1a 3d
       0.011795142 0.019224532 0.026900988 0.037742563
000320 ac be 55 3d f7 d5 6f 3d c2 2b 25 3d b3 d5 9d ba
       0.052183792 0.058553662 0.040324934 -0.0012041837
000330 65 7b 21 bd 22 b2 11 bd 8b 11 ce bc 5d e0 af bb
       -0.03942432 -0.03557027 -0.02515485 -0.0053673224
000340 2e 8d dc bb f5 09 65 bd 05 78 51 bc d3 2c fd 3b
       -0.006730697 -0.0559177 -0.012784963 0.0077262907
000350 15 9d 34 3c 89 b3 af bc f2 ec 8e 3c cf fe 7b 3d
       0.011023779 -0.021447914 0.017446969 0.0615223
000360 5e 1c 79 3d 4c 9c 8c 3d ab a3 54 3d f3 dd 05 3c
       0.06081807 0.06865749 0.0519139 0.008170593
000370 5e e6 8d bc 07 74 0a bd 5f 78 f1 bc ac 15 94 bc
       -0.017321762 -0.03380206 -0.029476343 -0.01807674
000380 89 d6 c8 bc 12 a1 41 bd e7 89 23 bd 5a 65 31 bd
       -0.02451636 -0.04727275 -0.039926436 -0.043309547
000390 9c 18 10 bd 2d a7 36 3c c8 04 e9 3c 91 be 9e 3c
       -0.03517972 0.011148256 0.028444663 0.019377979
0003a0 3a 47 02 3d e6 06 6c 3d 4a 7d 2d 3d e3 ef 49 3b
       0.03180621 0.057623766 0.042355813 0.003081315
0003b0 df a4 08 bd 05 2e 37 bd e0 d7 50 bd 25 0d 91 bc
       -0.03336036 -0.044721622 -0.050987124 -0.017706463
0003c0 bd d2 91 ba 7b d6 e6 ba ab bd 17 bd d6 a9 88 bc
       -0.0011125427 -0.0017611528 -0.037046116 -0.016682547
0003d0 3a 29 77 3c 44 8e 64 bc 47 a1 ec 3c 73 2c 2e 3d
       0.015085513 -0.013949934 0.028885497 0.04252286
0003e0 d6 25 60 3d dc e0 46 3d 82 50 29 3d 41 a2 28 3c
       0.054723583 0.048554286 0.041336544 0.010292591
0003f0 3e 85 56 bd 96 99 61 bd 07 f8 7f bd 4f a7 15 bc
       -0.052373163 -0.05507811 -0.062492397 -0.009134128

l.bias f4 [4]
000000 e8 b2 84 bb 6f 7b dd bc f1 89 84 3c 67 29 84 3b
       -0.0040496476 -0.027036397 0.016179057 0.004033256
